…
colab":{"base_uri":"https://localhost:8080/"},"id":"1rij26kDcujC","executionInfo":{"status":"ok","timestamp":1686420476135,"user_tz":-420,"elapsed":4,"user":{"displayName":"PHÚ NGUYỄN ĐẮC HOÀNG","userId":"05644926397827677174"}},"outputId":"576f727b-b395-4a6f-baaa-1189985cb100"},"execution_count":571,"outputs":[{"output_type":"stream","name":"stdout","text":["----------------------------------------------------------------\n","        Layer (type)               Output Shape         Param #\n","================================================================\n","            Conv2d-1            [-1, 64, 6, 16]           9,408\n","       BatchNorm2d-2            [-1, 64, 6, 16]             128\n","              ReLU-3            [-1, 64, 6, 16]               0\n","         MaxPool2d-4             [-1, 64, 3, 8]               0\n","            Conv2d-5             [-1, 64, 3, 8]          36,864\n","       BatchNorm2d-6             [-1, 64, 3, 8]             128\n","              ReLU-7             [-1, 64, 3, 8]               0\n","            Conv2d-8             [-1, 64, 3, 8]          36,864\n","       BatchNorm2d-9             [-1, 64, 3, 8]             128\n","             ReLU-10             [-1, 64, 3, 8]               0\n","       BasicBlock-11             [-1, 64, 3, 8]               0\n","           Conv2d-12             [-1, 64, 3, 8]          36,864\n","      BatchNorm2d-13             [-1, 64, 3, 8]             128\n","             ReLU-14             [-1, 64, 3, 8]               0\n","           Conv2d-15             [-1, 64, 3, 8]          36,864\n","      BatchNorm2d-16             [-1, 64, 3, 8]             128\n","             ReLU-17             [-1, 64, 3, 8]               0\n","       BasicBlock-18             [-1, 64, 3, 8]               0\n","           Conv2d-19            [-1, 128, 2, 4]          73,728\n","      BatchNorm2d-20            [-1, 128, 2, 4]             256\n","             ReLU-21            [-1, 128, 2, 4]               0\n","           Conv2d-22            [-1, 128, 2, 4]         147,456\n","      BatchNorm2d-23            [-1, 128, 2, 4]             256\n","           Conv2d-24            [-1, 128, 2, 4]           8,192\n","      BatchNorm2d-25            [-1, 128, 2, 4]             256\n","             ReLU-26            [-1, 128, 2, 4]               0\n","       BasicBlock-27            [-1, 128, 2, 4]               0\n","           Conv2d-28            [-1, 128, 2, 4]         147,456\n","      BatchNorm2d-29            [-1, 128, 2, 4]             256\n","             ReLU-30            [-1, 128, 2, 4]               0\n","           Conv2d-31            [-1, 128, 2, 4]         147,456\n","      BatchNorm2d-32            [-1, 128, 2, 4]             256\n","             ReLU-33            [-1, 128, 2, 4]               0\n","       BasicBlock-34            [-1, 128, 2, 4]               0\n","           Conv2d-35            [-1, 256, 1, 2]         294,912\n","      BatchNorm2d-36            [-1, 256, 1, 2]             512\n","             ReLU-37            [-1, 256, 1, 2]               0\n","           Conv2d-38            [-1, 256, 1, 2]         589,824\n","      BatchNorm2d-39            [-1, 256, 1, 2]             512\n","           Conv2d-40            [-1, 256, 1, 2]          32,768\n","      BatchNorm2d-41            [-1, 256, 1, 2]             512\n","             ReLU-42            [-1, 256, 1, 2]               0\n","       BasicBlock-43            [-1, 256, 1, 2]               0\n","           Conv2d-44            [-1, 256, 1, 2]         589,824\n","      BatchNorm2d-45            [-1, 256, 1, 2]             512\n","             ReLU-46            [-1, 256, 1, 2]               0\n","           Conv2d-47            [-1, 256, 1, 2]         589,824\n","      BatchNorm2d-48            [-1, 256, 1, 2]             512\n","             ReLU-49            [-1, 256, 1, 2]               0\n","       BasicBlock-50            [-1, 256, 1, 2]               0\n","           Conv2d-51           [-1, 256, 9, 10]         590,080\n","      BatchNorm2d-52           [-1, 256, 9, 10]             512\n","             ReLU-53           [-1, 256, 9, 10]               0\n","           Linear-54              [-1, 10, 256]         590,080\n","              GRU-55  [[-1, 10, 512], [-1, 10, 256]]               0\n","         blockRNN-56              [-1, 10, 256]               0\n","              GRU-57  [[-1, 10, 512], [-1, 10, 256]]               0\n","         blockRNN-58              [-1, 10, 512]               0\n","           Linear-59               [-1, 10, 19]           9,747\n","================================================================\n","Total params: 3,973,203\n","Trainable params: 3,973,203\n","Non-trainable params: 0\n","----------------------------------------------------------------\n","Input size (MB): 0.00\n","Forward/backward pass size (MB): 198.89\n","Params size (MB): 15.16\n","Estimated Total Size (MB): 214.05\n","---------------------------------
…
